src/backend/assets/lstmgru.onnx (onnx, 109868 bytes, 7 tensors)

fc.weight f4 [1, 50]
00000000: b9ca fe3d a060 c03d b672 d03d a20f 92bd
00000010: 2d78 c8bd 2bb9 e5bd 95af 7bbd 45ef 473d
00000020: 4714 9d3d 44dc 9f3d fcfc efbd dd83 983d
00000030: b79d c83d cb2c 7a3d 7569 b9bd 9146 59bd
00000040: 6368 a1bd ac46 b6bd 33d5 a4bd 95de 1c3d
00000050: 6975 0dbe 98e1 bb3d a353 b7bd a32b 733d
00000060: f645 d2bc 44bb a3bd e9ce b3bd 45fa c73d
00000070: 5c4b 97bd 9531 d8bd 275c de3d 4631 bebd
00000080: 7f2d a33d a7cd f23d 951a 993d d648 c4bd
00000090: b6d6 0e3e a83a 813d 93dd c63d 3bf6 aa3d
000000a0: 51a6 17bd e9be c7bd a349 9bbd 8c40 94bd
000000b0: 9584 97bd cf3a 873d 7c1c b43d 069f bb3d
000000c0: 9527 98bd 48c5 5d3d
0.1244101 0.0939343 0.101781294 -0.07131888 -0.09788547 -0.112169586 -0.061446745 0.04881217
0.07669883 0.07805684 -0.11718175 0.07447026 0.09795707 0.061077874 -0.090533175 -0.053045813
-0.07881238 -0.08900198 -0.08048477 0.03829821 -0.1381432 0.09173888 -0.08951499 0.059367787
-0.025668126 -0.079947025 -0.08779699 0.09764532 -0.073874205 -0.10556332 0.108574204 -0.09286742
0.07967662 0.11855631 0.07475773 -0.09584205 0.13949093 0.06310016 0.09710231 0.08347746
-0.037023846 -0.0975321 -0.075824045 -0.07238874 -0.07398335 0.06603014 0.087944955 0.09161191
-0.07429425 0.05414322

onnx::LSTM_197 f4 [1, 200, 3]
00000000: b4d8 34bd 26f0 ebbd 34af 933c b39a bdbd
00000010: b965 1bbe 2133 debc 3068 29be 760a fdbd
00000020: 043f a8bd 485e d83d f9d0 8c3e 6bd3 c33d
00000030: cc74 ae3d fda5 053e e15f 39bd 70ee a23d
00000040: f517 203e 4a8e 213d 3470 0ebe a299 d63e
00000050: 41d1 05be cfbf f43d 5a3f 3d3e b22a c13d
00000060: b262 343e 2488 843e 5958 043e 2647 ebbc
00000070: 8e95 0cbc 3c7e 263d dcb2 23bb 0537 433e
00000080: 597a 89bc b8ce 87bd 334c 8eba 8fdc 93bb
00000090: 1061 183d a975 6a3d f50b 433e a6d6 ce3c
000000a0: 2bd4 f4bd fa6c 2dbe d87f 3e3e 1577 d0bd
000000b0: 5c99 90bd 96ff 95bd a03a d43c 08ef 35bd
000000c0: d172 2a3e 789b 25bd 6166 ae3c 0294 65bc
000000d0: d245 0dbd c403 fabc a62a 7c3e 69ad a53d
000000e0: ac85 56bc 57ab 013e d5fa ba3e e10a a83d
000000f0: 28e2 e53d 7682 aebd 6d5e 3c3d c12b 453d
00000100: b5c0 04be 56ee 25bd 3cfc e03d 4a61 663e
00000110: df22 0f3e cfed 45bd 7d9b bc3e a727 a73c
00000120: 1555 5a3d bb6a adbd 356c 0dbe b6de 1bbd
00000130: 52d2 853e 5645 c73b b1ea b4bb 7cae 803e
00000140: 134c 33bc 33c4 3ebc 668d 533e 882d 9dbc
00000150: 7756 c13c aff9 013e d83c 3a3e 629b f13d
00000160: 3e82 573c 82d9 9ebc 9e1a f4bd 03d6 b93d
00000170: 79d7 37be e74b 2c3c b308 093e f5c0 043e
00000180: 3f6f 00be 4cf8 00be 08c6 51be 597a 433e
00000190: c7a8 633e 3209 dfbd c1be 9fbc 71ed 5a3c
000001a0: 5d00 0ebe ae01 963c 978d 103e 2cdd e9b9
000001b0: 6429 2bbd 6445 01bb e0c2 b5bd d325 53bb
000001c0: 5d04 8abd e5a8 433d 9b9b e6bd d773 e6ba
000001d0: 6fc2 b5bd 6857 9b3d c2f9 8c3e 3766 d33c
000001e0: ed3f 5abd d7d7 d63e 9973 e73d 082e 03be
000001f0: d2f9 8a3e 6b2c 133d 2f27 7dbe 04f7 9bbe
00000200: 4b7f e3bd 8354 223e d6c4 ac3d dff4 873d
00000210: 2d72 40be 1e4c 79bb e4c8 0b3d 6424 4b3d
00000220: a34e ad3d 081b 873d 1dce 663d 0315 8a3e
00000230: df48 68bd 172b f13d 9a4e a03e 8a33 213e
00000240: 2abd 8d3d 8184 213e f5d6 a43d 4e4c 9cbd
00000250: a429 adba 7624 05bc 5f2e 92bd 4092 24bd
00000260: 59a6 e3bd e857 933d b69c a83c ee51 3c3c
00000270: 5602 f2bd fe08 b0bd 8505 39be 365e 1d3b
00000280: 164d f73d 20e4 ec3c 7d66 483e 0c8c 003e
00000290: aad7 3a3e dcd7 c73d 0eec f23d 3d86 e73c
000002a0: dc27 13be 71c5 bc3e c914 5a3d 2002 453d
000002b0: bd85 483d e199 bf3c 8507 a03e e68c 8a3d
000002c0: 1b8b 0c3e 7fc4 e23d 293a bb3b 513a 35bd
000002d0: 74e1 1a3e 2c8e 753c 0deb 3f3d d86e 6f3d
000002e0: 1715 6abd 820e 05be 01fa 403d 588f e6bd
000002f0: dce1 0bbd c16b 00be 9019 f0bd 9691 243d
00000300: 21ad 703e 8efe e2bd 4ed4 6c3d 9645 883d
00000310: ad72 8f3c 80ae 58bd 0ea7 6c3e 771a bbbd
00000320: 1195 31bd db38 d5ba 6f0e 05be 6bf7 f1bd
00000330: acb0 063e 39f6 be3d 6432 64bd 1231 2d3e
00000340: b49f 5f3e f199 82bd e723 433d d587 4c3d
00000350: 8fca c1bd 19c5 0cbe 8c22 6ebe c573 b5bc
00000360: fb91 ec3c f7b6 183e 310f cfbc 87df 35bb
00000370: d01e 693e 8c2a c23b d3a0 aa3c 6575 11be
00000380: 41ab a23c 098e 273e c865 8b3e 7959 dd3d
00000390: ce8a de3c d60f 603e ff4c 4bbc a4e1 2f3d
000003a0: 7942 643e f0a9 6ebe 3120 893e 6ca7 5a3e
000003b0: 33e7 563c 9dfa 49bd 6639 ef3d f13e 1c3d
000003c0: 2715 21be 793d ac3d d877 fbbd 2012 173e
000003d0: e593 2b3e 3867 b83b 0259 88be 366d 3cbe
000003e0: c2c2 49be 2df1 743e ca82 873e 838e 0cbd
000003f0: c833 2dbe f736 873c 7920 813d bb03 e43d
-0.044151977 -0.11520414 0.01802788 -0.09258022 -0.15175523 -0.02712399 -0.1654365 -0.12355511
-0.08215144 0.10564858 0.27503183 0.09561809 0.08518371 0.13051601 -0.045257453 0.079556346
0.15634139 0.039442338 -0.1390999 0.41914088 -0.13068105 0.11950647 0.18481198 0.094319716
0.17615774 0.25885117 0.12924327 -0.02872045 -0.0085805785 0.04064773 -0.0024978435 0.19063957
-0.016781973 -0.06631225 -0.0010856449 -0.0045123766 0.03720194 0.057241116 0.1904753 0.025248837
-0.1195453 -0.16936103 0.18603456 -0.10178963 -0.07060501 -0.0732414 0.02590686 -0.04441741
0.16645361 -0.04043147 0.021289052 -0.014012339 -0.034490414 -0.030519374 0.24625644 0.08089716
-0.013093393 0.12663017 0.36519495 0.082052 0.112247765 -0.08520977 0.04598849 0.04813743
-0.12964137 -0.040510498 0.1098561 0.2249805 0.13978146 -0.048322495 0.36837378 0.02040465
0.053303797 -0.08467623 -0.13810809 -0.03805419 0.26137024 0.0060812635 -0.0055211415 0.2513312
-0.0109434305 -0.011643457 0.20659408 -0.01918675 0.0236008 0.12692903 0.18187273 0.11797215
0.013153611 -0.019390825 -0.11919139 0.090740226 -0.1795329 0.010516143 0.13382225 0.12964232
-0.12542437 -0.12594718 -0.20485699 0.1908964 0.22232352 -0.10890426 -0.019500138 0.0133622745
-0.13867326 0.018311348 0.14116512 -0.0004460601 -0.04178752 -0.0019725198 -0.0887506 -0.003221859
-0.067391135 0.047768492 -0.11260148 -0.001758213 -0.08874976 0.07585031 0.275343 0.025805576
-0.05328362 0.41961548 0.113013454 -0.12810528 0.27143723 0.035931032 -0.24721979 -0.30461895
-0.111082636 0.15852551 0.08435981 0.06638502 -0.18793555 -0.0038039754 0.03412713 0.04959525
0.084622644 0.06596953 0.05634891 0.26969156 -0.05671012 0.11775797 0.31309968 0.15742317
0.06920846 0.15773202 0.08048812 -0.076317415 -0.0013211262 -0.008126369 -0.07137751 -0.040178537
-0.11115713 0.07194501 0.020582538 0.011494143 -0.11816852 -0.08595465 -0.18068512 0.0024012453
0.1207525 0.028917372 0.19570346 0.12553424 0.18246332 0.09757969 0.1186143 0.028262252
-0.14370674 0.36869386 0.05324248 0.04809773 0.048955668 0.023388805 0.31255737 0.067651555
0.1372494 0.11072635 0.0057137203 -0.044245068 0.15125066 0.01498751 0.04685502 0.05845532
-0.05714902 -0.12993816 0.047113422 -0.112578094 -0.034150943 -0.12541105 -0.11723626 0.040177904
0.23503543 -0.11083709 0.057819657 0.066538975 0.017510736 -0.05290079 0.23110601 -0.09135907
-0.04335505 -0.0016267555 -0.12993787 -0.11814769 0.13153332 0.09324307 -0.05571212 0.1691325
0.21838266 -0.06377018 0.04764166 0.049934227 -0.09462463 -0.13747062 -0.23255366 -0.02214993
0.028878203 0.14913546 -0.025275799 -0.002775164 0.2276566 0.005925482 0.02082864 -0.14204939
0.01985705 0.16362776 0.2722609 0.10808081 0.027165797 0.21881041 -0.012408494 0.042939797
0.22290982 -0.23307014 0.26782373 0.21352929 0.013116646 -0.04931127 0.1168087 0.038145963
-0.15730725 0.084101625 -0.12278718 0.14753008 0.16755636 0.005627539 -0.26630408 -0.18401036
-0.197032 0.23920126 0.26466972 -0.034315597 -0.16914284 0.016505701 0.06305022 0.11133524

onnx::LSTM_198 f4 [1, 200, 50]
00000000: 6ba5 223e 3cda 03bd 076e 193e c8ee fcbd
00000010: 0567 223d 6fc8 02be 9cd3 1fbd c4b8 75bd
00000020: e17d cf3c cd17 673d 129d f13d dc55 2fbe
00000030: a480 273d c1da 9c3d 2e01 e0bd 9a23 cd3d
00000040: 2d12 363d 9a16 ea3c 07c2 063e b74f b33d
00000050: 54c7 593c 04d5 1abe fdbb 95bd 98af 14be
00000060: 5ed2 c43d e3c4 a23d 9197 1bbd 2000 41bc
00000070: efa4 d63d eeb1 ac3d 9ebb 9bbd 984b 0abe
00000080: a5eb 683d faaf 3a3e c8b7 d2bd b971 553d
00000090: 7227 003d 4a11 bb3c 35b4 3fbc c984 3c3a
000000a0: 4888 61bd 1221 a93d 8b31 3ebd 72df 263e
000000b0: c68b 6fbb f7e8 803d a6e1 b3bd 1aa9 cabd
000000c0: 3475 bcbd 040c 323d 50ec 0cbc f265 cb3b
000000d0: 86fd 703a 69aa 05be 4bfa 993d 8772 073d
000000e0: 2d7b 903d 1373 963b 8967 4fbe 0eb8 85bb
000000f0: 5b6c 1b3c 2013 d03b 2695 4d3d 7ba8 c2bc
00000100: e208 a83d a9c8 6dbd 1287 e8bd 4c94 f2bd
00000110: 01d8 a13d 4e90 023e 6932 3f3d 1ef2 07bd
00000120: abe5 72bd 7780 843e 21eb 4fbd 984c 65be
00000130: d242 773d 9fc5 d6bb 60f0 6ebd de0a f7bc
00000140: 65a8 9d3d 6a4d 7bbd 42bd f3bc 00aa 673d
00000150: 9aff 01be 5c70 c4bd 53b3 773d 5bbb 9c3d
00000160: 8aee d53d b53e 363d e148 64be 7e9d 7b3c
00000170: a3fc 1d3d 31d6 0f3d 5f92 433e 0c0a 583d
00000180: 4cf2 b83d 4c47 a7bd 76e6 e13d 4879 9a3c
00000190: 2b76 59bd 8548 3a3d 764f abbd ac56 c9bd
000001a0: eee9 863d 574b d7bb 8b0f 90bd b09f d83d
000001b0: 8f3a 8aba 249e 8abd 99da 413e 0796 643d
000001c0: 8be1 333e 00b2 a1bd cfcf 763d c6d3 8a3d
000001d0: a5bf 90bd d5be cfbd 983f 27bd 4171 a53d
000001e0: c038 91bd 2633 02be 6c99 aabd 7618 64be
000001f0: c2c3 0dbe 5fda bf3d b5d9 4b3e 4ede e2bd
00000200: b468 da3d 5440 893c 738d bb3c 695e f6bd
00000210: 82a3 9cbd a82f 89bd 1456 6bbd 6e12 e33d
00000220: 8f44 e5bc aa1a dfbd 0c3d e43d 8ad8 893d
00000230: fd00 49bd 5340 d03c db52 aebd 5d7f ee3c
00000240: 3095 903d 68a0 283e 0938 903d 85b6 34be
00000250: b437 6f3c 0fd4 0a3e c4ff 593e 74e3 82be
00000260: bff4 323e e668 e3bd 4aac bd3d 216c b23d
00000270: 4e3f f5bd 6c33 263e 651f 2abd b14b 2dbe
00000280: c343 ff3d 3666 39be a0ac c8bc 20ff e23b
00000290: 2d01 623d 2d6e 553d d1e3 ad3a 4ba8 8cbc
000002a0: 0c34 d23d 7761 083c ca23 5e3e f63d 9a3d
000002b0: adfe 51bc 01d1 88be 61f9 f4bd bb46 89bc
000002c0: d35a 0a3e 7005 133e 2143 e9bd e33c 513e
000002d0: 2683 9d3d ffec 45be 7769 1f3e 84ec 133d
000002e0: d812 0ebe 3546 4a3e d9b1 f23a 47ef 54be
000002f0: 5bf4 543e 5080 e23d 7601 813d 27ee 2fbe
00000300: 379a c9bc a354 023e afc3 aabd 46ed dbbc
00000310: ef30 893d 59be e2bd 6d71 40bd 8254 aebd
00000320: fe23 0abd 710f 98bd 5fb1 9fbd fbc6 523d
00000330: 9cd0 ce3d b311 44bd 04e1 1d3d ca30 0ebd
00000340: 43bf fdbc 69de 21bd 7a80 8fbd 137f e63c
00000350: a45b df3d 8115 783d 96cc 063e 7427 3a3d
00000360: 1b70 95bd 5b59 8e3d 2703 bd3c 23da 0a3b
00000370: 9ca7 59bd eae7 7abd 739c 03be ee0d bb3d
00000380: c202 99bd 9ea7 83bd 9eba 533d af0f e8bc
00000390: 3b9e 3cbb 4485 55bc 1f5a d0bd bdfa f73a
000003a0: 7012 96bd 88ab ff3d 6900 bdbd ce0c 05be
000003b0: ea26 f2bd 009c 19bc 8dc8 e83d fc8d e2bd
000003c0: db79 95bd c4d8 93bc 2456 033e 2af9 843d
000003d0: 1b13 1f3e daf8 be3c 00c2 6c3d 6a24 953d
000003e0: 698c f73b c2c4 01be 6a55 92bd 44e3 50bd
000003f0: 12d3 bcbc 2d2f 83bd f4ed febd 9c20 32b8
0.15883414 -0.032190546 0.14983378 -0.123502314 0.03964903 -0.12771772 -0.039020166 -0.05999066
0.025328578 0.056419183 0.11797537 -0.17122597 0.040894166 0.076589115 -0.10937725 0.10016556
0.044450928 0.02857523 0.13159953 0.08755439 0.013292152 -0.15120322 -0.073112465 -0.14520109
0.09610437 0.079477094 -0.037986342 -0.011779815 0.10480677 0.08432375 -0.076041445 -0.13505399
0.056865353 0.18231192 -0.1028896 0.052110408 0.031287618 0.022835393 -0.01170068 0.00071914174
-0.05506161 0.08258261 -0.046433967 0.16296175 -0.0036551817 0.062944345 -0.087832734 -0.09895535
-0.09202042 0.04346849 -0.008601263 0.006207221 0.00091930514 -0.13053288 0.07518443 0.033068206
0.07054744 0.0045913546 -0.2025434 -0.004080779 0.009486283 0.006349936 0.050191067 -0.023761978
0.08204819 -0.058052693 -0.113538876 -0.11844692 0.079025276 0.1275036 0.046678934 -0.033189885
-0.05930106 0.2587926 -0.050761346 -0.223925 0.06036646 -0.00655432 -0.05833471 -0.030156549
0.07698134 -0.061353125 -0.029753331 0.05655861 -0.1269516 -0.09591743 0.06047375 0.07652923
0.10445888 0.044493396 -0.22293426 0.015357373 0.03857101 0.03511638 0.19098805 0.052743956
0.090305895 -0.08167896 0.11030285 0.01885666 -0.05309121 0.045479316 -0.08364765 -0.098309845
0.06587587 -0.0065702605 -0.070342146 0.10577333 -0.0010546016 -0.06768444 0.18931045 0.05580714
0.17566507 -0.07895279 0.060256775 0.06778674 -0.07067803 -0.1014382 -0.040832132 0.08078242
-0.07090902 -0.12714824 -0.08330044 -0.22274956 -0.13844207 0.09367823 0.19907267 -0.110775575
0.10664502 0.016754307 0.022894597 -0.12029726 -0.07648374 -0.06698543 -0.057455137 0.110874996
-0.027986793 -0.10893758 0.11144456 0.06730755 -0.049073208 0.025421297 -0.08511897 0.029113466
0.07059705 0.1646744 0.07041938 -0.1764775 0.014600683 0.13557456 0.21288973 -0.25564158
0.17476176 -0.11103992 0.09261377 0.0871203 -0.11974965 0.16230553 -0.041533846 -0.16923405
0.124640964 -0.18105397 -0.024496377 0.006927386 0.055176903 0.052107025 0.0013266747 -0.017170092
0.102638334 0.008324019 0.2169334 0.07531349 -0.012817067 -0.26721957 -0.11961628 -0.01675736
0.13511209 0.14357543 -0.11389757 0.20433383 0.0769103 -0.19328688 0.15567575 0.03611423
-0.13874376 0.19753344 0.0018516137 -0.20794402 0.20796339 0.1105963 0.06299107 -0.17180692
-0.024609668 0.12727599 -0.08338105 -0.02684654 0.066987865 -0.11071462 -0.04698317 -0.08512212
-0.03372573 -0.0742482 -0.07797503 0.051459294 0.10098383 -0.04786844 0.03854467 -0.034714498
-0.03097499 -0.039518747 -0.07006927 0.028136766 0.10906151 0.060567383 0.13163981 0.04544778
-0.07296773 0.06950637 0.023072792 0.0021187149 -0.05313836 -0.061256327 -0.1285265 0.09133516
-0.07471229 -0.06428455 0.051691644 -0.028327791 -0.0028780836 -0.013032261 -0.10173439 0.001891933
-0.073277354 0.12483889 -0.09228594 -0.12993166 -0.118238285 -0.009375572 0.11366377 -0.110622376
-0.07298633 -0.018047698 0.12825829 0.06492837 0.15534632 0.023312021 0.0578022 0.07282336
0.00755458 -0.12672713 -0.07145198 -0.050997987 -0.023049865 -0.064054824 -0.1244773 -4.2468877e-05

onnx::LSTM_199 f4 [1, 400]
00000000: 52d1 aa3c af8c cb3c e6c0 43bd 9d51 0cbd
00000010: b4c1 d53d 8b78 55bd 42c5 f4bd 348d e83d
00000020: 337b e73b 30f3 d5bc 60ea 7dbd 2c84 5bba
00000030: ce8d 2dbc 0812 8bbd e547 d1bd 37d9 b03d
00000040: f5c8 f83c 6c93 68be 10d9 023c 81e3 8cbc
00000050: 170d a6bd 8bee 45be 69cd 923d 40ac 593e
00000060: e021 3ebe 9f47 103e 5675 123e c4d3 14be
00000070: a941 133e 74b1 0fbe 36d6 ea3b 5f9a 4d3e
00000080: 50e3 9cbe ac90 d63d 562e fabd 04f1 313e
00000090: 855d a13d ad3a b1bd 732a 0c3d 4703 433d
000000a0: 5734 ea3c 24f0 abbd d3cf a8bd d200 babd
000000b0: 92c0 ebbd fc95 4f3d dcfb dd3d 8226 b63b
000000c0: ac16 31bd 972a 07be 9c18 6dbe c06d 983d
000000d0: e9e9 33be 6180 c83d d8be f539 d36c f3bd
000000e0: 3571 f0bd 78e3 80bd df80 f73d b6c2 b93d
000000f0: 4150 21be f350 ddbd c983 053e e54a 36be
00000100: 3f8e 7d3d cba0 0ebe bd8f 1d3e 7917 6cbd
00000110: 0343 15be 5e25 e1bd 9ce2 73bd bfa6 7cbd
00000120: de97 7a3d 0bb9 193e 247e 843d da9a 453e
00000130: 1301 b73d f35c cf3b 5f2b a53d d747 0fbe
00000140: 9e74 2f3b c184 3a3e 85aa b0bd 5e61 97bd
00000150: 5b57 00bd 0ba5 97bc 767c 863c c6b4 c43d
00000160: a9dc cf3c f1ad d83d 62ac 85bc 7413 7abd
00000170: c462 12be 4fa9 fa3b f7a4 1ebe b6fd 8fbd
00000180: 540d af3d e5ec 173e 72c8 f9bc 57d7 0ebd
00000190: dce4 1abe fab0 c53d eaf7 13be 8cc7 4b3d
000001a0: 3eeb f73d 34d9 7c3d 685c 71be baf0 983d
000001b0: 2a9f 9bbc d65e 28be 353a 2dbe a28a 7abd
000001c0: 9095 853c 6725 9cbd 9605 12be c09a 143c
000001d0: 5c1d 40bd e0e3 0fbe 3987 0b3d 2de9 0fbd
000001e0: d80a c3bd 831c 62be ae28 1d3a b56d 10bd
000001f0: f4c8 38be ae22 34bd 0ad4 25be c628 49be
00000200: e1b5 debd 1778 5ebe 46ce 43bd b68a 33be
00000210: d96b 15be d22d 903d 1cfe 363d a770 27be
00000220: 10f6 dabd 5bee 0bbe 1f34 e8bd 4d8d 84bd
00000230: 78da 47bd d24c d4bd c3b9 92be 701b d2bd
00000240: 6bb7 00bd 5149 6a3d 3961 2bbd 0e85 263d
00000250: 987f e4bc 3501 3ebe 1cf4 7e3c a074 27bd
00000260: b8a2 5037 ff4a f1bc 5cca 22be 5fb4 dc3d
00000270: e73d e6bc f6bb ef3d 3e49 9f3d b7d8 83bd
00000280: a37f 5f3d eee9 8bbc 5ad1 243e 9518 8cbc
00000290: 001d 5dbd ad25 72bd 0dcb 6c3e 764f de3b
000002a0: d9fd cb3c d593 59bd 50ce a13d 35be e93a
000002b0: a138 033e 7567 23be 2c4c 10be 270e f03d
000002c0: 26d4 353e bbce 613d ee52 453e 2894 c8bc
000002d0: 64ea 21bb fbe2 22be e9a6 a8bc 484b 9c3d
000002e0: 6d97 15bd d0fc 203e d540 10be 9c30 423d
000002f0: 7ff8 80b9 fa7d 083e aaa5 93bc 487b 16be
00000300: 8ebe b43d fdb1 f43d 4e60 21bd c71f 12bc
00000310: 354b edbc e1ae 25be 2a99 64bd a6e6 9cbd
00000320: 38c0 a7bd 179d 0cbe eae0 0cbe f3fc 303d
00000330: b90f 373e 61bd e0bd 2e94 683d ec35 ecbd
00000340: 266f 413e cc0c 14bd fb6c 9b3d b845 ffbd
00000350: b84c 253d 6c95 463c 3a46 22be 88dd 8dbd
00000360: 6ddf 1a3d 031d bfbb a0f4 e13d 71ff 4abd
00000370: 2420 9ebc 7322 4ebe 4a76 70bd 75c3 d23d
00000380: 11d9 d6bd 3cef cd3c 848c 103e 18d8 03be
00000390: f77e 7cbc 10f3 07be a99a edbc c2c8 af3c
000003a0: 7845 9ebe b041 ea3d d4d6 243d 8dfb 4abd
000003b0: 60e2 3fbe 67e0 093c 8b91 2bbe edc9 c13d
000003c0: 1cf8 febd 2d74 1f3b a782 babd 0861 0b3c
000003d0: 24cf 8cbd 39c7 bdbd 98cf d33d 10cf 7a3e
000003e0: 3eca b5bd 9579 babd 7736 e4bd 8b33 4abd
000003f0: aeb0 24bd 69d8 7b3d 49a4 363d f725 fe3c
0.020851765 0.024847357 -0.047791384 -0.03425752 0.104373366 -0.05211691 -0.119516864 0.11355057
0.007064247 -0.026116937 -0.061991096 -0.0008373882 -0.010592891 -0.067905486 -0.10218791 0.086351804
0.030369261 -0.22712487 0.007986322 -0.017198326 -0.081079654 -0.19329278 0.07168085 0.21257114
-0.1856761 0.14089821 0.14302573 -0.14533907 0.14380516 -0.14032537 0.007166649 0.20078419
-0.30642176 0.10476813 -0.12215869 0.17377096 0.078791656 -0.0865377 0.03422017 0.047610547
0.02858941 -0.083954126 -0.08242764 -0.09082188 -0.11511339 0.050680146 0.10839054 0.0055587897
-0.043234512 -0.1319984 -0.23153919 0.07442808 -0.17569698 0.09790111 0.0004687223 -0.11885991
-0.117403425 -0.06293386 0.12085127 0.09070341 -0.1575327 -0.108064555 0.13038553 -0.17802007
0.061903235 -0.13928525 0.15386863 -0.057639573 -0.14576344 -0.10993455 -0.059542283 -0.06168246
0.061179988 0.15011995 0.06469372 0.19297352 0.08935752 0.006328219 0.08064913 -0.13992248
0.002677239 0.18214704 -0.08626274 -0.07391618 -0.03133331 -0.018511316 0.01641677 0.09604792
0.025373774 0.10580052 -0.01631755 -0.06105371 -0.14295489 0.0076495777 -0.15492617 -0.070308134
0.08547464 0.14836462 -0.030491088 -0.034873333 -0.15126365 0.09652896 -0.1445004 0.04975085
0.12105416 0.06173058 -0.23570406 0.0746779 -0.018996794 -0.16442427 -0.16916735 -0.061167367
0.016306669 -0.076243214 -0.14259943 0.009070098 -0.046903 -0.14051771 0.034064505 -0.035134483
-0.09523553 -0.22081189 0.00059951365 -0.035260875 -0.18045408 -0.043978386 -0.16194168 -0.1964446
-0.108745344 -0.21725498 -0.04780414 -0.17533383 -0.14591922 0.070399895 0.04467593 -0.16351567
-0.10691464 -0.13665144 -0.11338066 -0.064722635 -0.048792332 -0.10366215 -0.2865735 -0.102591395
-0.03142492 0.057198826 -0.041840766 0.040654235 -0.027892873 -0.18555148 0.01556113 -0.040882707
1.2435652e-05 -0.029454706 -0.15897506 0.107765906 -0.02810569 0.117057726 0.07777642 -0.064378195
0.054565083 -0.01707932 0.16095486 -0.017101565 -0.053982735 -0.05911796 0.23124333 0.006784375
0.024901317 -0.0531195 0.07900679 0.0017833175 0.12814571 -0.15957434 -0.14091557 0.11721449
0.1775671 0.055128794 0.19269916 -0.024484709 -0.0024706358 -0.15906899 -0.020587401 0.07631546
-0.036521364 0.1572144 -0.14087231 0.04740964 -0.00024599207 0.13329306 -0.01802333 -0.14695466
0.08825408 0.11948011 -0.039398484 -0.008918709 -0.028966526 -0.16179992 -0.05581013 -0.0766118
-0.0819096 -0.137318 -0.13757673 0.04320998 0.17877091 -0.10973621 0.05678194 -0.11533722
0.18890056 -0.036145017 0.07589146 -0.1246447 0.040356368 0.012120586 -0.15847102 -0.06927019
0.03781073 -0.005832316 0.11032987 -0.049560014 -0.019302435 -0.20130329 -0.05870656 0.10291187
-0.10490621 0.02513849 0.14116102 -0.12875402 -0.01541113 -0.13276315 -0.029004412 0.021458033
-0.30912375 0.1143831 0.04024394 -0.049556304 -0.18738699 0.008415318 -0.16754739 0.094623424
-0.12449667 0.002433072 -0.09106951 0.008507021 -0.068754464 -0.09266514 0.1034233 0.2449305
-0.08876465 -0.09105221 -0.11143201 -0.04936556 -0.040207557 0.06148568 0.04459027 0.031023962

onnx::GRU_219 f4 [1, 150, 50]
00000000: 4cf5 093f dc8f 60bf 4686 eb3d 4fbb bcbe
00000010: 1d42 b7be cc0b 243f 79e5 14bf a2d4 c33e
00000020: a933 7f3e a709 09bf bb7f e73e b745 a2be
00000030: bd5b 053f 6c16 493f ac2c d9be e680 c7bd
00000040: 4afb 083f f6d3 813e 754a 9c3e 0b2d 8dbe
00000050: befa 863e 67a6 07be 6b81 1d3f 4c3c 35bf
00000060: 0946 efbe 8201 f63e 21c0 403f df55 b1bc
00000070: 512e e93e e396 e83d ca22 1f3e efa5 7cbf
00000080: 7dfd 5e3f 5934 8d3e 65d3 e6be e504 0f3f
00000090: 82f0 f4be 86af 58bf b48f f83e 1ddf ee3e
000000a0: 71a9 7e3e 3f3f 3cbf 116e a23e b38e 913e
000000b0: 8858 28bf 3718 053f 1d7f 11bf 0363 dfbe
000000c0: 66c8 a3bd bcfd 53bf c4ee a73e 4dad 74be
000000d0: 807c d83c db27 8bbd 2e6b ebbe 330f 0c3f
000000e0: 4b61 3cbe 3b1a 7f3e 86fd a23e aef1 cfbe
000000f0: 23c5 ee3c a6ae afbd b71b 7b3e 6523 053f
00000100: 2b42 27be 407a 1abc 02e1 ae3e ec86 bfbb
00000110: 1c55 1f3e b16c 1a3e d751 dd3a c1ae ab3c
00000120: 92d3 c53e f9c0 bbbe 71b6 f0be c4f9 473e
00000130: d08f 7d3e 9eef 8dbe de78 423e f30f dabd
00000140: f21d 90bd 2cdc 44bf 37cd a93e bfce 4a3e
00000150: 12ff 21be 64bc a73e 1ec1 c6be 43fb 1bbf
00000160: 9c92 013f f42a 673e c7d3 cebc afa7 03bf
00000170: 27c1 8b3d d966 2c3e dc6e 13bf 7f50 ba3e
00000180: f066 c5be 1acf c9be c852 c03d 7077 cbbe
00000190: 23c4 bbbc 572a b8be 29c8 babd 5ed0 20be
000001a0: 01eb 37bd 1ea8 a93e 6197 87be 71c3 223c
000001b0: 7577 343e f76e e5bd e273 2a3d 0097 413c
000001c0: 2ece a93e 8f32 d93e 2045 c0bd d254 6cbe
000001d0: 55a2 0a3e b1cd 81bd ec78 90bd 87c6 0bbd
000001e0: e08e e33d 6262 5f3e 6c6b 123e 2e56 01bf
000001f0: 7cd8 3abe af9c 063e f424 b43e 652e f6bd
00000200: 90d1 573e 6305 36bc 9a67 bdbb 9f39 05bf
00000210: ab5d c03e 304f af3d 3826 d3bc fe65 793e
00000220: 4fce 60be ab62 acbe fa47 0e3e 0a5f c43d
00000230: 9d0b 413d a85c a6be f924 913e 307d e33d
00000240: a446 afbe 1b24 2a3e ad80 7dbd 95cd 23be
00000250: 28b1 6d3d 9835 a5be cf2d 8f3e 6a5b eabd
00000260: 3400 d83d 5dd2 71bd 440d b6be 5994 8c3e
00000270: 512e e0bd 4a22 5f3d ee33 c5bd dc89 95bd
00000280: dc18 3d3e 3664 7abd 892e ca3d 5e93 333e
00000290: 2fa6 e4bd 95b4 f3bd c01a 013e be09 853d
000002a0: 3de6 133e 116e 4e3e 6259 833d 7759 163d
000002b0: e3a2 423e e37c 36be d505 66be 7a09 1fbd
000002c0: ffe0 c03d 5978 00be 56cb 47bc 9e0a ecbd
000002d0: 30dc 47bd 9fe5 8ebe 0247 c73e 0102 143e
000002e0: 6037 22be 49a0 e8bc ce06 7ebe 8f36 07be
000002f0: b73f a13e bb3d 96bd 56e4 efbd 7e60 90be
00000300: 79bf 403d fe10 513c fc99 78be 7211 2a3e
00000310: 45ca b6be 2f24 05bd 1e6a 9d3c 0cc8 05be
00000320: b0ef 053f 6cb9 c9be c569 aa3d 85f5 3bbe
00000330: f8bd b9be d2e6 2b3f 01c4 42bf d4ca cf3e
00000340: d279 8f3e f491 01bf 48ca c93e ce72 bfbe
00000350: 98ec ce3e 2956 3a3f 0f50 eabe b726 97bd
00000360: d96c c43e 6afe 8e3e f307 bb3e be14 51be
00000370: 8abb 833e f782 92bd 359e d43e 4732 5cbf
00000380: c6b0 bebe 9b4e 933e 60f1 e43e 05ab ac3d
00000390: d344 cd3e 4c43 e73c 8ea3 9d3d f087 6abf
000003a0: 162f 2a3f 882a d53e f1d6 97be a011 213f
000003b0: a019 02bf 8949 0fbf 2bbb bb3e da42 cc3e
000003c0: 673f ae3e 915d 44bf 2df2 883e 34c6 b23e
000003d0: cf36 43bf bd26 033f c4f6 c9be 154b d5be
000003e0: 12de 543c d973 47bf 4ae1 07bb 8606 8fbe
000003f0: 9b4b 19bd b1b0 25be a03c c2bd 4afc 8a3e
0.5388992 -0.8771951 0.1150022 -0.36861655 -0.35792628 0.640805 -0.5816265 0.38248163
0.2492205 -0.53530353 0.45214638 -0.31693813 0.52093107 0.7854984 -0.42416894 -0.09741382
0.53508437 0.25357026 0.30525556 -0.27573428 0.26363176 -0.13247071 0.615256 -0.7079513
-0.4673312 0.48048025 0.75293165 -0.021647392 0.4554315 0.11356904 0.15540615 -0.98690695
0.8710554 0.27579 -0.45083156 0.55866843 -0.47839743 -0.8464283 0.48547137 0.46654597
0.24869324 -0.73534006 0.317246 0.28429183 -0.6576009 0.51990074 -0.56834584 -0.43630227
-0.07997207 -0.8280904 0.3279935 -0.23894234 0.026426554 -0.06794711 -0.4598021 0.5471069
-0.1839649 0.2491235 0.31834048 -0.40614074 0.029146736 -0.085782334 0.24522291 0.5200713
-0.16333835 -0.009428561 0.34156042 -0.0058449414 0.1555981 0.15080525 0.0016885352 0.020957353
0.38637978 -0.36670664 -0.47014192 0.19528872 0.24761891 -0.27721876 0.1899142 -0.10647573
-0.070369616 -0.76898456 0.3316438 0.1980543 -0.15819958 0.32760918 -0.38819212 -0.6093027
0.50614333 0.22574979 -0.025247468 -0.5142774 0.0682395 0.16836108 -0.57591033 0.3638954
-0.38555098 -0.39415818 0.09390789 -0.3973956 -0.022920674 -0.35969803 -0.09120209 -0.15704486
-0.04490185 0.33136076 -0.2648268 0.009934292 0.17623694 -0.112028055 0.04161442 0.011815786
0.33165115 0.42421386 -0.093881845 -0.23079231 0.13538487 -0.06338061 -0.07054314 -0.034124877
0.111112356 0.21814874 0.1429879 -0.50522125 -0.18246645 0.13145708 0.35184443 -0.12020568
0.21076035 -0.011109683 -0.0057801725 -0.5204105 0.37571463 0.08560026 -0.02577506 0.24355313
-0.219537 -0.33669028 0.13894644 0.0958844 0.047130216 -0.32492566 0.2834852 0.11107862
-0.34233582 0.16615336 -0.061890293 -0.15996392 0.058030277 -0.3226745 0.27964637 -0.11443217
0.10546914 -0.05903851 -0.35556996 0.2745693 -0.10946334 0.05447606 -0.096290454 -0.07301685
0.18466514 -0.061130725 0.09872157 0.17536685 -0.111645095 -0.11899678 0.1260786 0.06495999
0.14443298 0.20159175 0.06413533 0.036706414 0.19007449 -0.17821078 -0.22463162 -0.038827397
0.094179146 -0.12545909 -0.012194475 -0.115254626 -0.04879397 -0.27909562 0.38921362 0.1445389
-0.15841436 -0.028396742 -0.24807283 -0.13204406 0.31493923 -0.07335993 -0.117134735 -0.28198618
0.047057603 0.012760399 -0.2427749 0.16608217 -0.35701194 -0.03250521 0.01921564 -0.13064593
0.5231886 -0.39399278 0.08320955 -0.18355377 -0.36277747 0.6714908 -0.7608033 0.40584433
0.2802263 -0.5061333 0.3941214 -0.37392277 0.40414882 0.7278772 -0.45764205 -0.07380431
0.38364294 0.27928478 0.36529502 -0.20418069 0.25729018 -0.07153886 0.41526952 -0.8601422
-0.37244242 0.2877091 0.44715405 0.08431057 0.4009157 0.028230332 0.07697211 -0.91613674
0.664781 0.4163401 -0.29656175 0.6291752 -0.5082035 -0.5597158 0.36666235 0.39894754
0.34032747 -0.7670527 0.26747265 0.34916842 -0.76255506 0.51230985 -0.3944608 -0.41658846
0.012992399 -0.77911144 -0.0020733648 -0.27934664 -0.03742562 -0.16180684 -0.094842196 0.27145606

onnx::GRU_220 f4 [1, 150, 50]
00000000: 9da0 febd adfd febd 85bf f73b 3d34 9b3e
00000010: 8522 bc3d 94f6 543d ba87 6b3e ed69 6c3d
00000020: 3ef4 cdbd 330a 2cbd 7d35 483e 59f9 86be
00000030: f633 84be fdd6 1bbf f462 8a3e a4d0 163f
00000040: 9e01 a53e c49c 633e 12d5 ee3d 4031 42bf
00000050: 8f85 a83e 19be 6ebe 11ca 693e bdae 3ebe
00000060: fd39 82be 4fb8 b83d 98db 9b3e e36d 5cbe
00000070: 6363 be3e 7ab6 513e 6951 4cbd 501d 8fbc
00000080: fce2 27be c6cb 8abe 9696 1fbe 48e2 593e
00000090: 606e 29bc 92bb 26be 9462 b6bd c78d 9ebd
000000a0: d1d7 953f 4159 d73d 1027 723e 50d2 c83e
000000b0: 4197 ae3e a6f1 45bb 381e 13be 3bcc 65be
000000c0: de0d c6bd 7cff c1be 89f1 df3d 67e5 13be
000000d0: fcd6 d73d 6ecb 603e a7f5 cb3c ef5f c5bd
000000e0: 2e97 8abd d703 6dbd 8b0e d0bd 9fdb f13d
000000f0: 539b c1bb 4c4b 27be 3969 47be 6541 ddbe
00000100: 7413 473c 1606 a33e d65d aabd c51e 71bd
00000110: 584c ba3c e54e 03bf 821e 243e 57fb 3e3d
00000120: fcdb f73d 2a42 33bd 624b 79bd 6d69 f1bd
00000130: 4d75 033e 937e 793d 80a6 c33d 1234 3b3b
00000140: 706f adbd 5673 30be 85a0 8abd b980 243d
00000150: 65b3 41be f412 593d 947d 07be 8bb6 323d
00000160: 708a 923d eccc 8b3d 49c2 873f 1113 2dbd
00000170: c326 f23c d27d 303e e89c 303e 8c75 283e
00000180: b49a debd 4053 b0bd 9e10 80bc d397 bfbe
00000190: f7d5 19bc 661e 2bbd ef90 403e 497c 923d
000001a0: 483d e83c 12c5 1cbe 19e4 1cbe 7a33 bb3e
000001b0: 88d4 6c3d 28cb 583e 5fb4 303c 3378 4ebc
000001c0: d7ce 30bd 3bb8 56be cda9 f1bc 2780 3b3d
000001d0: 39f4 93bc f9e9 32bc 0933 013d f028 d8be
000001e0: 49a7 863d e534 023d c4ec dfbc b36d 013e
000001f0: 1c70 82be 1dd3 fbbd 0cc6 2ebe fc61 0d3e
00000200: a12d d93d 9aa7 6f3b 5c8a a33a c976 9ebd
00000210: 2d58 423e c1e9 9cbd f259 4e3e 651f 733d
00000220: cc25 5fbc c6a5 d03c 3777 b43d 0835 513d
00000230: 34c1 593f 40d4 543b da57 d7bc 9314 9cbd
00000240: ae1e 27bd 8de1 7c3e 5e9c 013e 78e3 afbd
00000250: e37d b2bd 6cef 86bd 9a0e 183e d002 223e
00000260: 3948 9cbd 9b8e ae3d 7430 3fba aa9e 14be
00000270: 8cb1 2bbc dcb0 ee3c cdfa 063e 860e 5e3d
00000280: fbba 283d 1256 003e 7e82 42bd d3e5 47be
00000290: 1fbe 97bd e099 91bc 81b3 f33d 7ed2 c53c
000002a0: ebf5 c73d 5c59 e9bd 0671 26be fc11 29bd
000002b0: 0496 b7bd 735b 0e3d 8adf e23d dacc d2bd
000002c0: f131 cdbd db5c ce3c 539d 1b3d 17ad 08bd
000002d0: 1803 3bbd aeff 11be 11db 59bd a515 033e
000002e0: 4cde 983b 91d3 19be 8cf9 243d 70c5 523d
000002f0: d845 293e 56a7 b33c c56a a93e ef47 953c
00000300: c474 bf3d abf0 89bd aac0 c1bc d169 9d3c
00000310: dd3b 453d e64e 78bd 5d3e d7bd ff03 2c3c
00000320: ebcc 87bc 63ac 9cbe ef5c 293b 32e5 c43e
00000330: 02d6 88bb e279 0dbc c0de 983e 7cfe b43d
00000340: d6e9 45be a6ca 4fbe 5c87 923e d603 0dbe
00000350: 6701 9dbe 4af4 cbbe d36e 523d ffbd f93e
00000360: f952 293e 4bab 803d 5071 8d3e 4f22 2bbf
00000370: bf13 373e ce83 f9bc aef0 813e d491 a1be
00000380: 1638 a8bd 5354 903e 291f 923e 4614 6bbc
00000390: dc34 423e a1df 173e fdbb 69be b850 ef3c
000003a0: 086f 7ebe 7f0f a7be a572 84be 3262 8f3d
000003b0: 776c 86be 09ca 18bb 749b d0bd 3827 adbe
000003c0: 6e88 883f 0f2a 283e dff7 253e 4ee6 593e
000003d0: b315 6b3e 87eb 86bd 8cf4 a6be cf17 bebd
000003e0: ba54 713d 9c56 edbe 9ece 89bd 0694 1e3d
000003f0: e3e7 51bd 21a0 32bc 0949 e9bd f22e 3cbe
-0.12432978 -0.124507286 0.0075606727 0.30313292 0.091862716 0.051992968 0.23000994 0.057718206
-0.10056351 -0.042001914 0.19551654 -0.26362112 -0.25820893 -0.6087492 0.2702862 0.5891211
0.32227796 0.2222777 0.11661734 -0.758564 0.32914397 -0.23314704 0.22830988 -0.18621345
-0.25434867 0.09019529 0.30440974 -0.21526293 0.371852 0.20479766 -0.049882326 -0.017470032
-0.16395181 -0.27108592 -0.15584788 0.21277726 -0.010341257 -0.1628249 -0.08905521 -0.07741886
1.1706487 0.10515071 0.23647714 0.39222956 0.34099773 -0.0030203848 -0.14366996 -0.22441189
-0.09670614 -0.37890232 0.10934741 -0.14442979 0.10539052 0.21952602 0.02489741 -0.096374385
-0.067671165 -0.05786499 -0.10159024 0.118094675 -0.0059084087 -0.16337317 -0.19473733 -0.43213955
0.012150634 0.3184058 -0.08318679 -0.058867235 0.022741482 -0.5129226 0.16027263 0.046626415
0.121025056 -0.04376427 -0.060862906 -0.117876865 0.12837715 0.060911726 0.09553242 0.0028564972
-0.08468521 -0.17231497 -0.06768898 0.040161822 -0.1891609 0.05299659 -0.13231498 0.043631118
0.07155311 0.06826195 1.0606166 -0.04225451 0.029559499 0.17235497 0.17247355 0.1645109
-0.10869351 -0.08609629 -0.015632924 -0.3742052 -0.009389392 -0.041777037 0.18805288 0.07152612
0.028349534 -0.15309551 -0.15321387 0.3656271 0.057819873 0.21171248 0.010785191 -0.0126019
-0.043166008 -0.20968716 -0.029499913 0.045776512 -0.01806079 -0.010920041 0.03154281 -0.42218733
0.06574876 0.031788725 -0.027334578 0.12639503 -0.25476158 -0.12296126 -0.17067736 0.1380691
0.10604406 0.0036568404 0.0012477147 -0.077375 0.18978949 -0.076617725 0.20151499 0.059356112
-0.013619851 0.025469672 0.08811801 0.051075965 0.8506043 0.0032475144 -0.026287008 -0.07621112
-0.040800743 0.24695416 0.12657306 -0.08588308 -0.08715417 -0.06588635 0.1484932 0.15821385
-0.07630963 0.085232936 -0.0007293292 -0.1451365 -0.010479342 0.029137067 0.1318161 0.05421307
0.041193943 0.12532833 -0.04748773 -0.19521265 -0.074093096 -0.017773569 0.11899472 0.024148222
0.09763702 -0.11393997 -0.16254053 -0.041276917 -0.0896416 0.03475518 0.11077793 -0.102929786
-0.10019291 0.025190761 0.037991833 -0.033368196 -0.045657247 -0.1425769 -0.053187434 0.12801225
0.0046651717 -0.15022112 0.04027705 0.051457822 0.1653055 0.021930378 0.3308927 0.018222777
0.09348443 -0.06735357 -0.02365144 0.019215496 0.048152793 -0.06062212 -0.10509942 0.010499
-0.016577205 -0.3060027 0.0025842746 0.38456112 -0.0041759023 -0.008635016 0.29857445 0.088376015
-0.19327483 -0.20292148 0.28618896 -0.13770995 -0.30665132 -0.39834815 0.05137522 0.48777768
0.16535558 0.062826715 0.27625513 -0.66849226 0.17878626 -0.030458357 0.25378937 -0.3155657
-0.082138225 0.28189334 0.28539398 -0.014348095 0.18965477 0.14831401 -0.22825618 0.029213294
-0.24847043 -0.3262901 -0.25868717 0.07001151 -0.26254627 -0.0023313782 -0.101859 -0.33818984
1.0666635 0.16422294 0.16207837 0.2127926 0.22957496 -0.06587892 -0.3260845 -0.09281885
0.058918692 -0.4635514 -0.06728862 0.038715385 -0.051246535 -0.0109024355 -0.113908835 -0.18377283

onnx::GRU_221 f4 [1, 300]
00000000: 99b5 d03e 66b1 f33e 5b60 ae3e 2744 573e
00000010: 123c c83e ca2b b43e 451e c93e 3f14 8f3e
00000020: a3bd 79bd 060f 4d3e 9b9a c13e 43bf 983e
00000030: 8df3 0c3e e4a0 d83d e431 713e 2880 813e
00000040: 3fbd ce3e 760c af3e 6f8f e13e fb94 a93e
00000050: 4613 5c3f 5b33 493e 6fa8 073f cbf2 0c3e
00000060: d09b 88bb 3a8f 6f3e a208 903e 6f0b c53e
00000070: 9db2 cc3e a6c7 0c3f 1540 e83e c5aa 983e
00000080: 085f c93e eb87 0a3f aa0f 0c3f 661b d13e
00000090: 4bad b23e 5d72 c83e c4a7 d03e 6538 083f
000000a0: a572 10be 2171 443e 9936 883e f631 b93e
000000b0: ec28 a73e fa6b f53b 6f71 f83e 14e6 e03e
000000c0: f6d0 af3e 3db0 2dbc d05b febd 6a0c 5ebe
000000d0: 4429 0abe 6395 efbd 6d0c 23be 43fc eabe
000000e0: 0c74 95be 18d7 d7bd 0c9c 6b3d 2ccb 74bb
000000f0: eae0 eb3b 465b e8bd 8995 90be 5826 1ebe
00000100: 4054 7abd 041f 76bd 0757 d93d 5411 84bd
00000110: be95 853d 70fc 6fbd 4988 253c ddfa 05be
00000120: 3aa5 bebd d9c8 0ebe 0a76 723b 6b3a c5be
00000130: c62f 2fbe 8d6e c2bd 3640 8fbe 102e 2dbe
00000140: f681 5bbe 215b 49be 34f6 b8be 6101 25be
00000150: fe45 0cbd 2633 87be 6e8a 39be e72d 6fbe
00000160: 1ff4 94bd ea6b adbe da53 51be dfbd cabe
00000170: 42a1 97be 7e85 80be c98f 88be 92e6 60bd
00000180: d39b 9bbe 7a3e 1fbe 3284 733d 4118 c5bd
00000190: 5347 a73d 62b9 7b3c a43d a73d 440e 7bbb
000001a0: d8ae c4bd 69f9 c6bc 5d78 4ebd e2f2 5c3c
000001b0: 5967 0fbd 2e91 f2bc 62a3 b0bd 24db 0a3c
000001c0: b0da f83c af75 d63c 8c75 aebd 01fe 873c
000001d0: 6879 5b3d 9a81 d73c d4cb 8cbb cbde 013b
000001e0: 5892 e5bd 3ebd a33d 8327 313d 8f83 59bd
000001f0: 0deb 863d 24be 8bbd 53e3 72bc 5613 f2bb
00000200: 5e6d b7bc 6b6e a0bd b8e1 0539 bf0c 11bd
00000210: 7103 d43d 7932 0c3d e600 cc3d a405 4ebd
00000220: 8f77 133e 99c4 b23d b317 1cbd 7e8c fe3c
00000230: f35c a0bc 334f 5fbd 4f15 aabc b161 ddbc
00000240: d20e 34bc 245e 13bd dade d83c a5e8 833c
00000250: 699b 113d f8f3 703d fdb2 033f b62a 083f
00000260: 948d d13e 52fe 933e 0aa9 bf3e 9f56 833e
00000270: 590a 753e 950a 8d3e 4eca a8bd f178 f43e
00000280: bd43 ba3e 7210 b73e 8b1c f43d 55c1 c33d
00000290: 0884 833e dd50 153e c255 e93e b234 c43e
000002a0: db0d e33e f929 693e 3010 373f 38d8 983e
000002b0: bec1 153f 2630 5e3e cc48 603e 79f7 b13d
000002c0: 3f4c 0d3e 7df2 d13e 0aa1 cc3e 819d 2a3f
000002d0: 5eeb dd3e dd69 cb3e 6e7b 9c3e b22b 073f
000002e0: cd62 b63e d6fe af3e 37dd ad3e 2d06 1b3e
000002f0: 5748 6a3e b81a bc3e 2a6f 1cbd 9827 583e
00000300: 2178 bd3e 0f73 883e c80e 853e 31df 5d3e
00000310: 057d 9e3e 63b5 1c3f 489d ea3e 367e 35bc
00000320: c0e9 3fbd 315d 2dbd 0c9e 5cbe a5fb 06bd
00000330: d7f3 aebd 4314 d3be d588 09be e679 69bd
00000340: 216a f8bd 0ad6 d0bc 23b5 5dbe 1fdb 61bd
00000350: 7fbc 7dbe 2ec8 a8bd 66e8 6bbe e44a 19be
00000360: 0612 973d 44b5 8cbd 5d75 923d 838f cebb
00000370: d9f0 f9bd 1d74 37be b31c 30bd 72ef 2d3d
00000380: 582e 73bd 2068 adbe 1aad 9cbe 6d48 d5ba
00000390: 871f c1be 4f03 46be bdc0 51bd 475c 4abe
000003a0: 3fa9 1abe 3862 41be 57bc d43b 1261 06be
000003b0: e121 27be f719 aabe 3aed f33d e789 4bbe
000003c0: de1f 77be 4ae7 9cbe 7c9c b0be 712b bebe
000003d0: d86c 1abe d010 bcbd 46f4 4dbd f8b1 abbe
000003e0: 9e8a a7bd f18e 56bd c45f a93d 3f55 f03d
000003f0: d8cd 48bd ccc3 8abc 48d7 20bb 6c5b bdbd
0.40763548 0.47596282 0.34057888 0.21022092 0.3910833 0.35189658 0.39280906 0.27945134
-0.060971867 0.20025262 0.37813267 0.2983342 0.13764782 0.105775625 0.23554188 0.25293088
0.40378758 0.34189194 0.44054744 0.33121476 0.8596691 0.19648497 0.52991384 0.13764493
-0.004168965 0.2339448 0.28131586 0.38485286 0.3998002 0.5499214 0.4536139 0.29817787
0.39330316 0.54113644 0.547114 0.40841216 0.34897837 0.39149752 0.40752995 0.5321105
-0.14106233 0.1918378 0.26604155 0.3617093 0.32648408 0.0074896784 0.48524043 0.43925536
0.34339112 -0.0106011005 -0.124198556 -0.21684423 -0.13492304 -0.11698415 -0.15922709 -0.45895585
-0.291901 -0.10539073 0.057521865 -0.0037352545 0.0071984427 -0.11345534 -0.28239086 -0.15444314
-0.061115503 -0.060088173 0.10612302 -0.064486176 0.06522702 -0.058590353 0.010103294 -0.13083978
-0.09308858 -0.13943805 0.0036996626 -0.38521132 -0.17108068 -0.09493742 -0.27978677 -0.16912103
-0.21436295 -0.19663669 -0.36125338 -0.16113807 -0.034246437 -0.2640621 -0.18119213 -0.23357354
-0.07273125 -0.33871394 -0.20442143 -0.39597985 -0.29615217 -0.25101846 -0.266722 -0.05490739
-0.30392322 -0.15551177 0.059452243 -0.09623767 0.08167901 0.015364023 0.08166054 -0.0038308064
-0.09603661 -0.02428885 -0.050407756 0.013485642 -0.03501067 -0.029610243 -0.08624913 0.008475099
0.030377716 0.026179163 -0.08518514 0.01660061 0.05358258 0.026306916 -0.004296759 0.0019816633
-0.112095535 0.079950795 0.043250572 -0.05310398 0.06587801 -0.06823376 -0.014824706 -0.007387559
-0.022391018 -0.078335606 0.00012767955 -0.035412546 0.10352219 0.034227822 0.09961109 -0.050298348
0.14401077 0.08728904 -0.03810854 0.031072851 -0.019575572 -0.05451889 -0.020762114 -0.027024122
-0.010989862 -0.03597845 0.026473451 0.016102144 0.0355486 0.058826417 0.5144499 0.5319017
0.40928328 0.28904969 0.37433654 0.25652024 0.23929729 0.27547136 -0.082417116 0.4774852
0.36379805 0.35754734 0.11919507 0.095583595 0.2568667 0.14581628 0.4557324 0.38321453
0.44346508 0.22769918 0.71509075 0.29852462 0.5849875 0.21698055 0.2190277 0.0868978
0.13798617 0.41005316 0.39966613 0.6664658 0.43343633 0.39729205 0.3056292 0.5280105
0.35622254 0.34374112 0.33957836 0.15139075 0.22879158 0.36739135 -0.03819195 0.21108854
0.37005714 0.26650283 0.2598784 0.21667172 0.30954757 0.61214274 0.4582312 -0.011077454
-0.04685378 -0.042325202 -0.21544665 -0.03295483 -0.085426025 -0.41226396 -0.13431104 -0.057001017
-0.121296175 -0.025492687 -0.2165113 -0.05514061 -0.24778937 -0.08241306 -0.23037872 -0.14969975
0.073764846 -0.06870511 0.071512915 -0.006303729 -0.12204141 -0.17915387 -0.04299612 0.04246468
-0.05937037 -0.33868504 -0.30600816 -0.0016272195 -0.37719366 -0.193372 -0.0512092 -0.19761764
-0.15103625 -0.18885124 0.0064921784 -0.13122967 -0.16321518 -0.33222935 0.11910482 -0.19876824
-0.2413325 -0.3064521 -0.34494388 -0.37142518 -0.15080583 -0.09182894 -0.050281785 -0.33534217
-0.08180736 -0.052382413 0.08270219 0.117350094 -0.049024433 -0.016939066 -0.002454238 -0.09245953
